…
2024-06-20 23:03:00,619 - INFO: Transformers have been made successfully.
2024-06-20 23:03:00,619 - INFO: Dataset type: cache.
2024-06-20 23:03:00,619 - INFO: Dataloader type: standard.
2024-06-20 23:04:51,020 - INFO: Train dataloader arguments.
2024-06-20 23:04:51,020 - INFO: 	Batch_size: 32.
2024-06-20 23:04:51,020 - INFO: 	Shuffle: True.
2024-06-20 23:04:51,020 - INFO: 	Sampler: None.
2024-06-20 23:04:51,020 - INFO: 	Num_workers: 4.
2024-06-20 23:04:51,020 - INFO: 	Drop_last: False.
2024-06-20 23:04:51,070 - INFO: Dual_DCNN_LReLU(
  (conv_blocks_fixed): ModuleList(
    (0): conv_block_two(
      (pad1): conv3d_padding_same()
      (conv1): Conv3d(1, 8, kernel_size=(1, 6, 6), stride=(2, 2, 2))
      (norm1): BatchNorm3d(8, eps=1e-05, momentum=0.1, affine=True, track_running_stats=True)
      (activation1): LeakyReLU(negative_slope=0.1)
      (pad2): conv3d_padding_same()
      (conv2): Conv3d(8, 8, kernel_size=(1, 6, 6), stride=(1, 1, 1))
      (norm2): BatchNorm3d(8, eps=1e-05, momentum=0.1, affine=True, track_running_stats=True)
      (activation2): LeakyReLU(negative_slope=0.1)
      (max_pooling): MaxPool3d(kernel_size=3, stride=1, padding=0, dilation=1, ceil_mode=False)
    )
    (1): conv_block_two(
      (pad1): conv3d_padding_same()
      (conv1): Conv3d(8, 8, kernel_size=(1, 3, 3), stride=(2, 2, 2))
      (norm1): BatchNorm3d(8, eps=1e-05, momentum=0.1, affine=True, track_running_stats=True)
      (activation1): LeakyReLU(negative_slope=0.1)
      (pad2): conv3d_padding_same()
      (conv2): Conv3d(8, 8, kernel_size=(1, 3, 3), stride=(1, 1, 1))
      (norm2): BatchNorm3d(8, eps=1e-05, momentum=0.1, affine=True, track_running_stats=True)
      (activation2): LeakyReLU(negative_slope=0.1)
      (max_pooling): MaxPool3d(kernel_size=3, stride=1, padding=0, dilation=1, ceil_mode=False)
    )
    (2): conv_block_two(
      (pad1): conv3d_padding_same()
      (conv1): Conv3d(8, 16, kernel_size=(1, 3, 3), stride=(2, 2, 2))
      (norm1): BatchNorm3d(16, eps=1e-05, momentum=0.1, affine=True, track_running_stats=True)
      (activation1): LeakyReLU(negative_slope=0.1)
      (pad2): conv3d_padding_same()
      (conv2): Conv3d(16, 16, kernel_size=(1, 3, 3), stride=(1, 1, 1))
      (norm2): BatchNorm3d(16, eps=1e-05, momentum=0.1, affine=True, track_running_stats=True)
      (activation2): LeakyReLU(negative_slope=0.1)
      (max_pooling): MaxPool3d(kernel_size=3, stride=1, padding=0, dilation=1, ceil_mode=False)
    )
    (3): conv_block_two(
      (pad1): conv3d_padding_same()
      (conv1): Conv3d(16, 32, kernel_size=(1, 3, 3), stride=(1, 1, 1))
      (norm1): BatchNorm3d(32, eps=1e-05, momentum=0.1, affine=True, track_running_stats=True)
      (activation1): LeakyReLU(negative_slope=0.1)
      (pad2): conv3d_padding_same()
      (conv2): Conv3d(32, 32, kernel_size=(1, 3, 3), stride=(1, 1, 1))
      (norm2): BatchNorm3d(32, eps=1e-05, momentum=0.1, affine=True, track_running_stats=True)
      (activation2): LeakyReLU(negative_slope=0.1)
      (max_pooling): MaxPool3d(kernel_size=3, stride=1, padding=0, dilation=1, ceil_mode=False)
    )
  )
  (conv_blocks_moving): ModuleList(
    (0): conv_block_two(
      (pad1): conv3d_padding_same()
      (conv1): Conv3d(1, 8, kernel_size=(1, 6, 6), stride=(2, 2, 2))
      (norm1): BatchNorm3d(8, eps=1e-05, momentum=0.1, affine=True, track_running_stats=True)
      (activation1): LeakyReLU(negative_slope=0.1)
      (pad2): conv3d_padding_same()
      (conv2): Conv3d(8, 8, kernel_size=(1, 6, 6), stride=(1, 1, 1))
      (norm2): BatchNorm3d(8, eps=1e-05, momentum=0.1, affine=True, track_running_stats=True)
      (activation2): LeakyReLU(negative_slope=0.1)
      (max_pooling): MaxPool3d(kernel_size=3, stride=1, padding=0, dilation=1, ceil_mode=False)
    )
    (1): conv_block_two(
      (pad1): conv3d_padding_same()
      (conv1): Conv3d(8, 8, kernel_size=(1, 3, 3), stride=(2, 2, 2))
      (norm1): BatchNorm3d(8, eps=1e-05, momentum=0.1, affine=True, track_running_stats=True)
      (activation1): LeakyReLU(negative_slope=0.1)
      (pad2): conv3d_padding_same()
      (conv2): Conv3d(8, 8, kernel_size=(1, 3, 3), stride=(1, 1, 1))
      (norm2): BatchNorm3d(8, eps=1e-05, momentum=0.1, affine=True, track_running_stats=True)
      (activation2): LeakyReLU(negative_slope=0.1)
      (max_pooling): MaxPool3d(kernel_size=3, stride=1, padding=0, dilation=1, ceil_mode=False)
    )
    (2): conv_block_two(
      (pad1): conv3d_padding_same()
      (conv1): Conv3d(8, 16, kernel_size=(1, 3, 3), stride=(2, 2, 2))
      (norm1): BatchNorm3d(16, eps=1e-05, momentum=0.1, affine=True, track_running_stats=True)
      (activation1): LeakyReLU(negative_slope=0.1)
      (pad2): conv3d_padding_same()
      (conv2): Conv3d(16, 16, kernel_size=(1, 3, 3), stride=(1, 1, 1))
      (norm2): BatchNorm3d(16, eps=1e-05, momentum=0.1, affine=True, track_running_stats=True)
      (activation2): LeakyReLU(negative_slope=0.1)
      (max_pooling): MaxPool3d(kernel_size=3, stride=1, padding=0, dilation=1, ceil_mode=False)
    )
    (3): conv_block_two(
      (pad1): conv3d_padding_same()
      (conv1): Conv3d(16, 32, kernel_size=(1, 3, 3), stride=(1, 1, 1))
      (norm1): BatchNorm3d(32, eps=1e-05, momentum=0.1, affine=True, track_running_stats=True)
      (activation1): LeakyReLU(negative_slope=0.1)
      (pad2): conv3d_padding_same()
      (conv2): Conv3d(32, 32, kernel_size=(1, 3, 3), stride=(1, 1, 1))
      (norm2): BatchNorm3d(32, eps=1e-05, momentum=0.1, affine=True, track_running_stats=True)
      (activation2): LeakyReLU(negative_slope=0.1)
      (max_pooling): MaxPool3d(kernel_size=3, stride=1, padding=0, dilation=1, ceil_mode=False)
    )
  )
  (linear_layers): ModuleList(
    (0): Dropout(p=0.35973448489278154, inplace=False)
    (1): Linear(in_features=262144, out_features=32, bias=True)
  )
  (out_layer): Output(
    in_features=32, out_features=3, bias=True
    (fc): Linear(in_features=32, out_features=3, bias=True)
  )
)
2024-06-20 23:04:51,915 - INFO: Weight init name: kaiming_uniform.
2024-06-20 23:04:54,331 - INFO: Number of training iterations per epoch: 29.
2024-06-20 23:04:54,332 - INFO: Epoch 1/200...
2024-06-20 23:04:54,332 - INFO: Learning rate: 0.0017631196320841366.
2024-06-20 23:04:54,332 - INFO: Batch size: 32.
2024-06-20 23:04:54,332 - INFO: Dataset:
2024-06-20 23:04:54,332 - INFO: Batch size:
…
